…
Epoch [26/30], Train Accuracy: 11.24%
Epoch [26/30], Test Accuracy: 11.35%
Epoch [27/30], Train Accuracy: 11.24%
Epoch [27/30], Test Accuracy: 11.35%
Epoch [28/30], Train Accuracy: 11.24%
Epoch [28/30], Test Accuracy: 11.35%
Epoch [29/30], Train Accuracy: 11.24%
Epoch [29/30], Test Accuracy: 11.35%
Epoch [30/30], Train Accuracy: 11.24%
Epoch [30/30], Test Accuracy: 11.35%
Pruning completed successfully.
----------------------------------------------------------------
        Layer (type)               Output Shape         Param #
================================================================
            Conv2d-1            [-1, 1, 24, 24]              26
            Conv2d-2              [-1, 2, 8, 8]              52
            Linear-3                  [-1, 800]          26,400
            Linear-4                  [-1, 500]         400,500
            Linear-5                   [-1, 10]           5,010
================================================================
Total params: 431,988
Trainable params: 431,988
Non-trainable params: 0
----------------------------------------------------------------
Input size (MB): 0.00
Forward/backward pass size (MB): 0.02
Params size (MB): 1.65
Estimated Total Size (MB): 1.67
----------------------------------------------------------------
[INFO] Register count_convNd() for <class 'torch.nn.modules.conv.Conv2d'>.
…
